…
nterval 10 --ending-acc 0.9 --ending-acc-window 100

Namespace(algo='ppo', batch_size=256, clip_eps=0.2, discount=0.99, ending_acc=0.9, ending_acc_window=100, entropy_coef=0.01, env='MiniGrid-DoorKey-16x16-v0', epochs=4, frames=20000000, frames_per_proc=None, gae_lambda=0.95, log_interval=1, lr=0.0007, max_grad_norm=0.5, model='DoorKey-16x16-stratified-gidb', no_instr=True, no_mem=False, optim_alpha=0.99, optim_eps=1e-05, procs=20, recurrence=1, save_interval=10, seed=1, sigma=0.6, strat=0.0, tb=True, value_loss_coef=0.5)

Model successfully created

ACModel(
  (image_conv): Sequential(
    (0): Conv2d(3, 16, kernel_size=(2, 2), stride=(1, 1))
    (1): ReLU()
    (2): MaxPool2d(kernel_size=(2, 2), stride=2, padding=0, dilation=1, ceil_mode=False)
    (3): Conv2d(16, 32, kernel_size=(2, 2), stride=(1, 1))
    (4): ReLU()
    (5): Conv2d(32, 64, kernel_size=(2, 2), stride=(1, 1))
    (6): ReLU()
  )
  (memory_rnn): LSTMCell(64, 64)
  (actor): Sequential(
    (0): Linear(in_features=64, out_features=64, bias=True)
    (1): Tanh()
    (2): Linear(in_features=64, out_features=7, bias=True)
  )
  (critic): Sequential(
    (0): Linear(in_features=64, out_features=64, bias=True)
    (1): Tanh()
    (2): Linear(in_features=64, out_features=1, bias=True)
  )
)

CUDA available: True

U 1 | F 002560 | FPS 0839 | D 3 | rR:x̄σmM 0.00 0.00 0.00 0.00 | F:x̄σmM 0.0 0.0 0 0 | H 1.945 | V 0.077 | pL 0.012 | vL 0.000 | ∇ 0.004
U 2 | F 005120 | FPS 1605 | D 4 | rR:x̄σmM 0.00 0.00 0.00 0.00 | F:x̄σmM 0.0 0.0 0 0 | H 1.944 | V 0.070 | pL 0.012 | vL 0.000 | ∇ 0.003
U 3 | F 007680 | FPS 1606 | D 6 | rR:x̄σmM 0.00 0.00 0.00 0.00 | F:x̄σmM 0.0 0.0 0 0 | H 1.944 | V 0.056 | pL 0.010 | vL 0.000 | ∇ 0.003
…
/home/fabian_57/thesis_projects/curriculum-test/scripts/train.py --procs 20 --strat 0.3 --sigma 0.6 --algo=ppo --env MiniGrid-DoorKey-16x16-v0 --no-instr --tb --frames=20000000 --model DoorKey-16x16-stratified-gidb --save-interval 10 --ending-acc 0.9 --ending-acc-window 200

Namespace(algo='ppo', batch_size=256, clip_eps=0.2, discount=0.99, ending_acc=0.9, ending_acc_window=200, entropy_coef=0.01, env='MiniGrid-DoorKey-16x16-v0', epochs=4, frames=20000000, frames_per_proc=None, gae_lambda=0.95, log_interval=1, lr=0.0007, max_grad_norm=0.5, model='DoorKey-16x16-stratified-gidb', no_instr=True, no_mem=False, optim_alpha=0.99, optim_eps=1e-05, procs=20, recurrence=1, save_interval=10, seed=1, sigma=0.6, strat=0.3, tb=True, value_loss_coef=0.5)

Model successfully loaded

ACModel(
  (image_conv): Sequential(
    (0): Conv2d(3, 16, kernel_size=(2, 2), stride=(1, 1))
    (1): ReLU()
    (2): MaxPool2d(kernel_size=(2, 2), stride=2, padding=0, dilation=1, ceil_mode=False)
    (3): Conv2d(16, 32, kernel_size=(2, 2), stride=(1, 1))
    (4): ReLU()
    (5): Conv2d(32, 64, kernel_size=(2, 2), stride=(1, 1))
    (6): ReLU()
  )
  (memory_rnn): LSTMCell(64, 64)
  (actor): Sequential(
    (0): Linear(in_features=64, out_features=64, bias=True)
    (1): Tanh()
    (2): Linear(in_features=64, out_features=7, bias=True)
  )
  (critic): Sequential(
    (0): Linear(in_features=64, out_features=64, bias=True)
    (1): Tanh()
    (2): Linear(in_features=64, out_features=1, bias=True)
  )
)

CUDA available: True

/home/fabian_57/thesis_projects/curriculum-test/scripts/train.py --procs 20 --strat 0.0 --sigma 0.3 --algo=ppo --env MiniGrid-DoorKey-16x16-v0 --no-instr --tb --frames=30000000 --model DoorKey-16x16-stratified-gidb --save-interval 10 --ending-acc 0.9 --ending-acc-window 100

Namespace(algo='ppo', batch_size=256, clip_eps=0.2, discount=0.99, ending_acc=0.9, ending_acc_window=100, entropy_coef=0.01, env='MiniGrid-DoorKey-16x16-v0', epochs=4, frames=30000000, frames_per_proc=None, gae_lambda=0.95, log_interval=1, lr=0.0007, max_grad_norm=0.5, model='DoorKey-16x16-stratified-gidb', no_instr=True, no_mem=False, optim_alpha=0.99, optim_eps=1e-05, procs=20, recurrence=1, save_interval=10, seed=1, sigma=0.3, strat=0.0, tb=True, value_loss_coef=0.5)

Model successfully loaded

ACModel(
  (image_conv): Sequential(
    (0): Conv2d(3, 16, kernel_size=(2, 2), stride=(1, 1))
    (1): ReLU()
    (2): MaxPool2d(kernel_size=(2, 2), stride=2, padding=0, dilation=1, ceil_mode=False)
    (3): Conv2d(16, 32, kernel_size=(2, 2), stride=(1, 1))
    (4): ReLU()
    (5): Conv2d(32, 64, kernel_size=(2, 2), stride=(1, 1))
    (6): ReLU()
  )
  (memory_rnn): LSTMCell(64, 64)
  (actor): Sequential(
    (0): Linear(in_features=64, out_features=64, bias=True)
    (1): Tanh()
    (2): Linear(in_features=64, out_features=7, bias=True)
  )
  (critic): Sequential(
    (0): Linear(in_features=64, out_features=64, bias=True)
    (1): Tanh()
    (2): Linear(in_features=64, out_features=1, bias=True)
  )
)

CUDA available: True

U 5959 | F 15255040 | FPS 1118 | D 2 | rR:x̄σmM 0.73 0.42 0.00 0.98 | F:x̄σmM 65.5 42.5 0.0 120.0 | H 1.560 | V 0.563 | pL 0.010 | vL 0.002 | ∇ 0.014
U 5960 | F 15257600 | FPS 1617 | D 3 | rR:x̄σmM 0.96 0.01 0.94 0.98 | F:x̄σmM 101.2 35.3 43.0 161.0 | H 1.535 | V 0.602 | pL -0.002 | vL 0.002 | ∇ 0.016
Model successfully saved
U 5961 | F 15260160 | FPS 1585 | D 5 | rR:x̄σmM 0.97 0.01 0.94 0.98 | F:x̄σmM 91.0 31.1 47.0 181.0 | H 1.540 | V 0.624 | pL -0.004 | vL 0.002 | ∇ 0.017
…
