…
l 10 --ending-acc 0.9 --ending-acc-window 100

Namespace(algo='ppo', batch_size=256, clip_eps=0.2, discount=0.99, ending_acc=0.9, ending_acc_window=100, entropy_coef=0.01, env='MiniGrid-DoorKey-16x16-v0', epochs=4, frames=15000000, frames_per_proc=None, gae_lambda=0.95, log_interval=1, lr=0.0007, max_grad_norm=0.5, model='DoorKey-16x16-stratified-sigma0.55', no_instr=True, no_mem=False, optim_alpha=0.99, optim_eps=1e-05, procs=20, recurrence=1, save_interval=10, seed=1, sigma=0.55, strat=0.0, tb=True, value_loss_coef=0.5)

Model successfully created

ACModel(
  (image_conv): Sequential(
    (0): Conv2d(3, 16, kernel_size=(2, 2), stride=(1, 1))
    (1): ReLU()
    (2): MaxPool2d(kernel_size=(2, 2), stride=2, padding=0, dilation=1, ceil_mode=False)
    (3): Conv2d(16, 32, kernel_size=(2, 2), stride=(1, 1))
    (4): ReLU()
    (5): Conv2d(32, 64, kernel_size=(2, 2), stride=(1, 1))
    (6): ReLU()
  )
  (memory_rnn): LSTMCell(64, 64)
  (actor): Sequential(
    (0): Linear(in_features=64, out_features=64, bias=True)
    (1): Tanh()
    (2): Linear(in_features=64, out_features=7, bias=True)
  )
  (critic): Sequential(
    (0): Linear(in_features=64, out_features=64, bias=True)
    (1): Tanh()
    (2): Linear(in_features=64, out_features=1, bias=True)
  )
)

CUDA available: True

U 1 | F 002560 | FPS 1377 | D 1 | rR:x̄σmM 0.00 0.00 0.00 0.00 | F:x̄σmM 0.0 0.0 0 0 | H 1.945 | V 0.077 | pL 0.012 | vL 0.000 | ∇ 0.005
U 2 | F 005120 | FPS 1782 | D 3 | rR:x̄σmM 0.00 0.00 0.00 0.00 | F:x̄σmM 0.0 0.0 0 0 | H 1.944 | V 0.070 | pL 0.012 | vL 0.000 | ∇ 0.003
U 3 | F 007680 | FPS 1813 | D 4 | rR:x̄σmM 0.00 0.00 0.00 0.00 | F:x̄σmM 0.0 0.0 0 0 | H 1.944 | V 0.057 | pL 0.010 | vL 0.000 | ∇ 0.003
…
/home/fabian_57/thesis/curriculum-test/scripts/train.py --procs 20 --strat 0.12 --sigma 0.55 --algo=ppo --env MiniGrid-DoorKey-16x16-v0 --no-instr --tb --frames=15000000 --model DoorKey-16x16-stratified-sigma0.55 --save-interval 10 --ending-acc 0.9 --ending-acc-window 200

Namespace(algo='ppo', batch_size=256, clip_eps=0.2, discount=0.99, ending_acc=0.9, ending_acc_window=200, entropy_coef=0.01, env='MiniGrid-DoorKey-16x16-v0', epochs=4, frames=15000000, frames_per_proc=None, gae_lambda=0.95, log_interval=1, lr=0.0007, max_grad_norm=0.5, model='DoorKey-16x16-stratified-sigma0.55', no_instr=True, no_mem=False, optim_alpha=0.99, optim_eps=1e-05, procs=20, recurrence=1, save_interval=10, seed=1, sigma=0.55, strat=0.12, tb=True, value_loss_coef=0.5)

Model successfully loaded

ACModel(
  (image_conv): Sequential(
    (0): Conv2d(3, 16, kernel_size=(2, 2), stride=(1, 1))
    (1): ReLU()
    (2): MaxPool2d(kernel_size=(2, 2), stride=2, padding=0, dilation=1, ceil_mode=False)
    (3): Conv2d(16, 32, kernel_size=(2, 2), stride=(1, 1))
    (4): ReLU()
    (5): Conv2d(32, 64, kernel_size=(2, 2), stride=(1, 1))
    (6): ReLU()
  )
  (memory_rnn): LSTMCell(64, 64)
  (actor): Sequential(
    (0): Linear(in_features=64, out_features=64, bias=True)
    (1): Tanh()
    (2): Linear(in_features=64, out_features=7, bias=True)
  )
  (critic): Sequential(
    (0): Linear(in_features=64, out_features=64, bias=True)
    (1): Tanh()
    (2): Linear(in_features=64, out_features=1, bias=True)
  )
)

CUDA available: True

/home/fabian_57/thesis/curriculum-test/scripts/train.py --procs 20 --strat 0.14 --sigma 0.55 --algo=ppo --env MiniGrid-DoorKey-16x16-v0 --no-instr --tb --frames=15000000 --model DoorKey-16x16-stratified-sigma0.55 --save-interval 10 --ending-acc 0.9 --ending-acc-window 200

Namespace(algo='ppo', batch_size=256, clip_eps=0.2, discount=0.99, ending_acc=0.9, ending_acc_window=200, entropy_coef=0.01, env='MiniGrid-DoorKey-16x16-v0', epochs=4, frames=15000000, frames_per_proc=None, gae_lambda=0.95, log_interval=1, lr=0.0007, max_grad_norm=0.5, model='DoorKey-16x16-stratified-sigma0.55', no_instr=True, no_mem=False, optim_alpha=0.99, optim_eps=1e-05, procs=20, recurrence=1, save_interval=10, seed=1, sigma=0.55, strat=0.14, tb=True, value_loss_coef=0.5)

Model successfully loaded

ACModel(
  (image_conv): Sequential(
    (0): Conv2d(3, 16, kernel_size=(2, 2), stride=(1, 1))
    (1): ReLU()
    (2): MaxPool2d(kernel_size=(2, 2), stride=2, padding=0, dilation=1, ceil_mode=False)
    (3): Conv2d(16, 32, kernel_size=(2, 2), stride=(1, 1))
    (4): ReLU()
    (5): Conv2d(32, 64, kernel_size=(2, 2), stride=(1, 1))
    (6): ReLU()
  )
  (memory_rnn): LSTMCell(64, 64)
  (actor): Sequential(
    (0): Linear(in_features=64, out_features=64, bias=True)
    (1): Tanh()
    (2): Linear(in_features=64, out_features=7, bias=True)
  )
  (critic): Sequential(
    (0): Linear(in_features=64, out_features=64, bias=True)
    (1): Tanh()
    (2): Linear(in_features=64, out_features=1, bias=True)
  )
)

CUDA available: True

/home/fabian_57/thesis/curriculum-test/scripts/train.py --procs 20 --strat 0.16 --sigma 0.55 --algo=ppo --env MiniGrid-DoorKey-16x16-v0 --no-instr --tb --frames=15000000 --model DoorKey-16x16-stratified-sigma0.55 --save-interval 10 --ending-acc 0.9 --ending-acc-window 200

Namespace(algo='ppo', batch_size=256, clip_eps=0.2, discount=0.99, ending_acc=0.9, ending_acc_window=200, entropy_coef=0.01, env='MiniGrid-DoorKey-16x16-v0', epochs=4, frames=15000000, frames_per_proc=None, gae_lambda=0.95, log_interval=1, lr=0.0007, max_grad_norm=0.5, model='DoorKey-16x16-stratified-sigma0.55', no_instr=True, no_mem=False, optim_alpha=0.99, optim_eps=1e-05, procs=20, recurrence=1, save_interval=10, seed=1, sigma=0.55, strat=0.16, tb=True, value_loss_coef=0.5)

Model successfully loaded

ACModel(
  (image_conv): Sequential(
    (0): Conv2d(3, 16, kernel_size=(2, 2), stride=(1, 1))
    (1): ReLU()
    (2): MaxPool2d(kernel_size=(2, 2), stride=2, padding=0, dilation=1, ceil_mode=False)
    (3): Conv2d(16, 32, kernel_size=(2, 2), stride=(1, 1))
    (4): ReLU()
    (5): Conv2d(32, 64, kernel_size=(2, 2), stride=(1, 1))
    (6): ReLU()
  )
  (memory_rnn): LSTMCell(64, 64)
  (actor): Sequential(
    (0): Linear(in_features=64, out_features=64, bias=True)
    (1): Tanh()
    (2): Linear(in_features=64, out_features=7, bias=True)
  )
  (critic): Sequential(
    (0): Linear(in_features=64, out_features=64, bias=True)
    (1): Tanh()
    (2): Linear(in_features=64, out_features=1, bias=True)
  )
)

CUDA available: True

/home/fabian_57/thesis/curriculum-test/scripts/train.py --procs 20 --strat 0.18 --sigma 0.55 --algo=ppo --env MiniGrid-DoorKey-16x16-v0 --no-instr --tb --frames=15000000 --model DoorKey-16x16-stratified-sigma0.55 --save-interval 10 --ending-acc 0.9 --ending-acc-window 200

Namespace(algo='ppo', batch_size=256, clip_eps=0.2, discount=0.99, ending_acc=0.9, ending_acc_window=200, entropy_coef=0.01, env='MiniGrid-DoorKey-16x16-v0', epochs=4, frames=15000000, frames_per_proc=None, gae_lambda=0.95, log_interval=1, lr=0.0007, max_grad_norm=0.5, model='DoorKey-16x16-stratified-sigma0.55', no_instr=True, no_mem=False, optim_alpha=0.99, optim_eps=1e-05, procs=20, recurrence=1, save_interval=10, seed=1, sigma=0.55, strat=0.18, tb=True, value_loss_coef=0.5)

Model successfully loaded

ACModel(
  (image_conv): Sequential(
    (0): Conv2d(3, 16, kernel_size=(2, 2), stride=(1, 1))
    (1): ReLU()
    (2): MaxPool2d(kernel_size=(2, 2), stride=2, padding=0, dilation=1, ceil_mode=False)
    (3): Conv2d(16, 32, kernel_size=(2, 2), stride=(1, 1))
    (4): ReLU()
    (5): Conv2d(32, 64, kernel_size=(2, 2), stride=(1, 1))
    (6): ReLU()
  )
  (memory_rnn): LSTMCell(64, 64)
  (actor): Sequential(
    (0): Linear(in_features=64, out_features=64, bias=True)
    (1): Tanh()
    (2): Linear(in_features=64, out_features=7, bias=True)
  )
  (critic): Sequential(
    (0): Linear(in_features=64, out_features=64, bias=True)
    (1): Tanh()
    (2): Linear(in_features=64, out_features=1, bias=True)
  )
)

CUDA available: True

/home/fabian_57/thesis/curriculum-test/scripts/train.py --procs 20 --strat 0.2 --sigma 0.55 --algo=ppo --env MiniGrid-DoorKey-16x16-v0 --no-instr --tb --frames=15000000 --model DoorKey-16x16-stratified-sigma0.55 --save-interval 10 --ending-acc 0.9 --ending-acc-window 200

Namespace(algo='ppo', batch_size=256, clip_eps=0.2, discount=0.99, ending_acc=0.9, ending_acc_window=200, entropy_coef=0.01, env='MiniGrid-DoorKey-16x16-v0', epochs=4, frames=15000000, frames_per_proc=None, gae_lambda=0.95, log_interval=1, lr=0.0007, max_grad_norm=0.5, model='DoorKey-16x16-stratified-sigma0.55', no_instr=True, no_mem=False, optim_alpha=0.99, optim_eps=1e-05, procs=20, recurrence=1, save_interval=10, seed=1, sigma=0.55, strat=0.2, tb=True, value_loss_coef=0.5)

Model successfully loaded

ACModel(
  (image_conv): Sequential(
    (0): Conv2d(3, 16, kernel_size=(2, 2), stride=(1, 1))
    (1): ReLU()
    (2): MaxPool2d(kernel_size=(2, 2), stride=2, padding=0, dilation=1, ceil_mode=False)
    (3): Conv2d(16, 32, kernel_size=(2, 2), stride=(1, 1))
    (4): ReLU()
    (5): Conv2d(32, 64, kernel_size=(2, 2), stride=(1, 1))
    (6): ReLU()
  )
  (memory_rnn): LSTMCell(64, 64)
  (actor): Sequential(
    (0): Linear(in_features=64, out_features=64, bias=True)
    (1): Tanh()
    (2): Linear(in_features=64, out_features=7, bias=True)
  )
  (critic): Sequential(
    (0): Linear(in_features=64, out_features=64, bias=True)
    (1): Tanh()
    (2): Linear(in_features=64, out_features=1, bias=True)
  )
)

CUDA available: True

/home/fabian_57/thesis/curriculum-test/scripts/train.py --procs 20 --strat 0.22 --sigma 0.55 --algo=ppo --env MiniGrid-DoorKey-16x16-v0 --no-instr --tb --frames=15000000 --model DoorKey-16x16-stratified-sigma0.55 --save-interval 10 --ending-acc 0.9 --ending-acc-window 200

Namespace(algo='ppo', batch_size=256, clip_eps=0.2, discount=0.99, ending_acc=0.9, ending_acc_window=200, entropy_coef=0.01, env='MiniGrid-DoorKey-16x16-v0', epochs=4, frames=15000000, frames_per_proc=None, gae_lambda=0.95, log_interval=1, lr=0.0007, max_grad_norm=0.5, model='DoorKey-16x16-stratified-sigma0.55', no_instr=True, no_mem=False, optim_alpha=0.99, optim_eps=1e-05, procs=20, recurrence=1, save_interval=10, seed=1, sigma=0.55, strat=0.22, tb=True, value_loss_coef=0.5)

Model successfully loaded

ACModel(
  (image_conv): Sequential(
    (0): Conv2d(3, 16, kernel_size=(2, 2), stride=(1, 1))
    (1): ReLU()
    (2): MaxPool2d(kernel_size=(2, 2), stride=2, padding=0, dilation=1, ceil_mode=False)
    (3): Conv2d(16, 32, kernel_size=(2, 2), stride=(1, 1))
    (4): ReLU()
    (5): Conv2d(32, 64, kernel_size=(2, 2), stride=(1, 1))
    (6): ReLU()
  )
  (memory_rnn): LSTMCell(64, 64)
  (actor): Sequential(
    (0): Linear(in_features=64, out_features=64, bias=True)
    (1): Tanh()
    (2): Linear(in_features=64, out_features=7, bias=True)
  )
  (critic): Sequential(
    (0): Linear(in_features=64, out_features=64, bias=True)
    (1): Tanh()
    (2): Linear(in_features=64, out_features=1, bias=True)
  )
)

CUDA available: True

/home/fabian_57/thesis/curriculum-test/scripts/train.py --procs 20 --strat 0.24 --sigma 0.55 --algo=ppo --env MiniGrid-DoorKey-16x16-v0 --no-instr --tb --frames=15000000 --model DoorKey-16x16-stratified-sigma0.55 --save-interval 10 --ending-acc 0.9 --ending-acc-window 200

Namespace(algo='ppo', batch_size=256, clip_eps=0.2, discount=0.99, ending_acc=0.9, ending_acc_window=200, entropy_coef=0.01, env='MiniGrid-DoorKey-16x16-v0', epochs=4, frames=15000000, frames_per_proc=None, gae_lambda=0.95, log_interval=1, lr=0.0007, max_grad_norm=0.5, model='DoorKey-16x16-stratified-sigma0.55', no_instr=True, no_mem=False, optim_alpha=0.99, optim_eps=1e-05, procs=20, recurrence=1, save_interval=10, seed=1, sigma=0.55, strat=0.24, tb=True, value_loss_coef=0.5)

Model successfully loaded

ACModel(
  (image_conv): Sequential(
    (0): Conv2d(3, 16, kernel_size=(2, 2), stride=(1, 1))
    (1): ReLU()
    (2): MaxPool2d(kernel_size=(2, 2), stride=2, padding=0, dilation=1, ceil_mode=False)
    (3): Conv2d(16, 32, kernel_size=(2, 2), stride=(1, 1))
    (4): ReLU()
    (5): Conv2d(32, 64, kernel_size=(2, 2), stride=(1, 1))
    (6): ReLU()
  )
  (memory_rnn): LSTMCell(64, 64)
  (actor): Sequential(
    (0): Linear(in_features=64, out_features=64, bias=True)
    (1): Tanh()
    (2): Linear(in_features=64, out_features=7, bias=True)
  )
  (critic): Sequential(
    (0): Linear(in_features=64, out_features=64, bias=True)
    (1): Tanh()
    (2): Linear(in_features=64, out_features=1, bias=True)
  )
)

CUDA available: True

/home/fabian_57/thesis/curriculum-test/scripts/train.py --procs 20 --strat 0.26 --sigma 0.55 --algo=ppo --env MiniGrid-DoorKey-16x16-v0 --no-instr --tb --frames=15000000 --model DoorKey-16x16-stratified-sigma0.55 --save-interval 10 --ending-acc 0.9 --ending-acc-window 200

Namespace(algo='ppo', batch_size=256, clip_eps=0.2, discount=0.99, ending_acc=0.9, ending_acc_window=200, entropy_coef=0.01, env='MiniGrid-DoorKey-16x16-v0', epochs=4, frames=15000000, frames_per_proc=None, gae_lambda=0.95, log_interval=1, lr=0.0007, max_grad_norm=0.5, model='DoorKey-16x16-stratified-sigma0.55', no_instr=True, no_mem=False, optim_alpha=0.99, optim_eps=1e-05, procs=20, recurrence=1, save_interval=10, seed=1, sigma=0.55, strat=0.26, tb=True, value_loss_coef=0.5)

Model successfully loaded

ACModel(
  (image_conv): Sequential(
    (0): Conv2d(3, 16, kernel_size=(2, 2), stride=(1, 1))
    (1): ReLU()
    (2): MaxPool2d(kernel_size=(2, 2), stride=2, padding=0, dilation=1, ceil_mode=False)
    (3): Conv2d(16, 32, kernel_size=(2, 2), stride=(1, 1))
    (4): ReLU()
    (5): Conv2d(32, 64, kernel_size=(2, 2), stride=(1, 1))
    (6): ReLU()
  )
  (memory_rnn): LSTMCell(64, 64)
  (actor): Sequential(
    (0): Linear(in_features=64, out_features=64, bias=True)
    (1): Tanh()
    (2): Linear(in_features=64, out_features=7, bias=True)
  )
  (critic): Sequential(
    (0): Linear(in_features=64, out_features=64, bias=True)
    (1): Tanh()
    (2): Linear(in_features=64, out_features=1, bias=True)
  )
)

CUDA available: True

/home/fabian_57/thesis/curriculum-test/scripts/train.py --procs 20 --strat 0.28 --sigma 0.55 --algo=ppo --env MiniGrid-DoorKey-16x16-v0 --no-instr --tb --frames=15000000 --model DoorKey-16x16-stratified-sigma0.55 --save-interval 10 --ending-acc 0.9 --ending-acc-window 200

Namespace(algo='ppo', batch_size=256, clip_eps=0.2, discount=0.99, ending_acc=0.9, ending_acc_window=200, entropy_coef=0.01, env='MiniGrid-DoorKey-16x16-v0', epochs=4, frames=15000000, frames_per_proc=None, gae_lambda=0.95, log_interval=1, lr=0.0007, max_grad_norm=0.5, model='DoorKey-16x16-stratified-sigma0.55', no_instr=True, no_mem=False, optim_alpha=0.99, optim_eps=1e-05, procs=20, recurrence=1, save_interval=10, seed=1, sigma=0.55, strat=0.28, tb=True, value_loss_coef=0.5)

Model successfully loaded

ACModel(
  (image_conv): Sequential(
    (0): Conv2d(3, 16, kernel_size=(2, 2), stride=(1, 1))
    (1): ReLU()
    (2): MaxPool2d(kernel_size=(2, 2), stride=2, padding=0, dilation=1, ceil_mode=False)
    (3): Conv2d(16, 32, kernel_size=(2, 2), stride=(1, 1))
    (4): ReLU()
    (5): Conv2d(32, 64, kernel_size=(2, 2), stride=(1, 1))
    (6): ReLU()
  )
  (memory_rnn): LSTMCell(64, 64)
  (actor): Sequential(
    (0): Linear(in_features=64, out_features=64, bias=True)
    (1): Tanh()
    (2): Linear(in_features=64, out_features=7, bias=True)
  )
  (critic): Sequential(
    (0): Linear(in_features=64, out_features=64, bias=True)
    (1): Tanh()
    (2): Linear(in_features=64, out_features=1, bias=True)
  )
)

CUDA available: True

/home/fabian_57/thesis/curriculum-test/scripts/train.py --procs 20 --strat 0.3 --sigma 0.55 --algo=ppo --env MiniGrid-DoorKey-16x16-v0 --no-instr --tb --frames=15000000 --model DoorKey-16x16-stratified-sigma0.55 --save-interval 10 --ending-acc 0.9 --ending-acc-window 200

Namespace(algo='ppo', batch_size=256, clip_eps=0.2, discount=0.99, ending_acc=0.9, ending_acc_window=200, entropy_coef=0.01, env='MiniGrid-DoorKey-16x16-v0', epochs=4, frames=15000000, frames_per_proc=None, gae_lambda=0.95, log_interval=1, lr=0.0007, max_grad_norm=0.5, model='DoorKey-16x16-stratified-sigma0.55', no_instr=True, no_mem=False, optim_alpha=0.99, optim_eps=1e-05, procs=20, recurrence=1, save_interval=10, seed=1, sigma=0.55, strat=0.3, tb=True, value_loss_coef=0.5)

Model successfully loaded

ACModel(
  (image_conv): Sequential(
    (0): Conv2d(3, 16, kernel_size=(2, 2), stride=(1, 1))
    (1): ReLU()
    (2): MaxPool2d(kernel_size=(2, 2), stride=2, padding=0, dilation=1, ceil_mode=False)
    (3): Conv2d(16, 32, kernel_size=(2, 2), stride=(1, 1))
    (4): ReLU()
    (5): Conv2d(32, 64, kernel_size=(2, 2), stride=(1, 1))
    (6): ReLU()
  )
  (memory_rnn): LSTMCell(64, 64)
  (actor): Sequential(
    (0): Linear(in_features=64, out_features=64, bias=True)
    (1): Tanh()
    (2): Linear(in_features=64, out_features=7, bias=True)
  )
  (critic): Sequential(
    (0): Linear(in_features=64, out_features=64, bias=True)
    (1): Tanh()
    (2): Linear(in_features=64, out_features=1, bias=True)
  )
)

CUDA available: True

/home/fabian_57/thesis/curriculum-test/scripts/train.py --procs 20 --strat 0.32 --sigma 0.55 --algo=ppo --env MiniGrid-DoorKey-16x16-v0 --no-instr --tb --frames=15000000 --model DoorKey-16x16-stratified-sigma0.55 --save-interval 10 --ending-acc 0.9 --ending-acc-window 200

Namespace(algo='ppo', batch_size=256, clip_eps=0.2, discount=0.99, ending_acc=0.9, ending_acc_window=200, entropy_coef=0.01, env='MiniGrid-DoorKey-16x16-v0', epochs=4, frames=15000000, frames_per_proc=None, gae_lambda=0.95, log_interval=1, lr=0.0007, max_grad_norm=0.5, model='DoorKey-16x16-stratified-sigma0.55', no_instr=True, no_mem=False, optim_alpha=0.99, optim_eps=1e-05, procs=20, recurrence=1, save_interval=10, seed=1, sigma=0.55, strat=0.32, tb=True, value_loss_coef=0.5)

Model successfully loaded

ACModel(
  (image_conv): Sequential(
    (0): Conv2d(3, 16, kernel_size=(2, 2), stride=(1, 1))
    (1): ReLU()
    (2): MaxPool2d(kernel_size=(2, 2), stride=2, padding=0, dilation=1, ceil_mode=False)
    (3): Conv2d(16, 32, kernel_size=(2, 2), stride=(1, 1))
    (4): ReLU()
    (5): Conv2d(32, 64, kernel_size=(2, 2), stride=(1, 1))
    (6): ReLU()
  )
  (memory_rnn): LSTMCell(64, 64)
  (actor): Sequential(
    (0): Linear(in_features=64, out_features=64, bias=True)
    (1): Tanh()
    (2): Linear(in_features=64, out_features=7, bias=True)
  )
  (critic): Sequential(
    (0): Linear(in_features=64, out_features=64, bias=True)
    (1): Tanh()
    (2): Linear(in_features=64, out_features=1, bias=True)
  )
)

CUDA available: True

/home/fabian_57/thesis/curriculum-test/scripts/train.py --procs 20 --strat 0.34 --sigma 0.55 --algo=ppo --env MiniGrid-DoorKey-16x16-v0 --no-instr --tb --frames=15000000 --model DoorKey-16x16-stratified-sigma0.55 --save-interval 10 --ending-acc 0.9 --ending-acc-window 200

Namespace(algo='ppo', batch_size=256, clip_eps=0.2, discount=0.99, ending_acc=0.9, ending_acc_window=200, entropy_coef=0.01, env='MiniGrid-DoorKey-16x16-v0', epochs=4, frames=15000000, frames_per_proc=None, gae_lambda=0.95, log_interval=1, lr=0.0007, max_grad_norm=0.5, model='DoorKey-16x16-stratified-sigma0.55', no_instr=True, no_mem=False, optim_alpha=0.99, optim_eps=1e-05, procs=20, recurrence=1, save_interval=10, seed=1, sigma=0.55, strat=0.34, tb=True, value_loss_coef=0.5)

Model successfully loaded

ACModel(
  (image_conv): Sequential(
    (0): Conv2d(3, 16, kernel_size=(2, 2), stride=(1, 1))
    (1): ReLU()
    (2): MaxPool2d(kernel_size=(2, 2), stride=2, padding=0, dilation=1, ceil_mode=False)
    (3): Conv2d(16, 32, kernel_size=(2, 2), stride=(1, 1))
    (4): ReLU()
    (5): Conv2d(32, 64, kernel_size=(2, 2), stride=(1, 1))
    (6): ReLU()
  )
  (memory_rnn): LSTMCell(64, 64)
  (actor): Sequential(
    (0): Linear(in_features=64, out_features=64, bias=True)
    (1): Tanh()
    (2): Linear(in_features=64, out_features=7, bias=True)
  )
  (critic): Sequential(
    (0): Linear(in_features=64, out_features=64, bias=True)
    (1): Tanh()
    (2): Linear(in_features=64, out_features=1, bias=True)
  )
)

CUDA available: True

/home/fabian_57/thesis/curriculum-test/scripts/train.py --procs 20 --strat 0.36 --sigma 0.55 --algo=ppo --env MiniGrid-DoorKey-16x16-v0 --no-instr --tb --frames=15000000 --model DoorKey-16x16-stratified-sigma0.55 --save-interval 10 --ending-acc 0.9 --ending-acc-window 200

Namespace(algo='ppo', batch_size=256, clip_eps=0.2, discount=0.99, ending_acc=0.9, ending_acc_window=200, entropy_coef=0.01, env='MiniGrid-DoorKey-16x16-v0', epochs=4, frames=15000000, frames_per_proc=None, gae_lambda=0.95, log_interval=1, lr=0.0007, max_grad_norm=0.5, model='DoorKey-16x16-stratified-sigma0.55', no_instr=True, no_mem=False, optim_alpha=0.99, optim_eps=1e-05, procs=20, recurrence=1, save_interval=10, seed=1, sigma=0.55, strat=0.36, tb=True, value_loss_coef=0.5)

Model successfully loaded

ACModel(
  (image_conv): Sequential(
    (0): Conv2d(3, 16, kernel_size=(2, 2), stride=(1, 1))
    (1): ReLU()
    (2): MaxPool2d(kernel_size=(2, 2), stride=2, padding=0, dilation=1, ceil_mode=False)
    (3): Conv2d(16, 32, kernel_size=(2, 2), stride=(1, 1))
    (4): ReLU()
    (5): Conv2d(32, 64, kernel_size=(2, 2), stride=(1, 1))
    (6): ReLU()
  )
  (memory_rnn): LSTMCell(64, 64)
  (actor): Sequential(
    (0): Linear(in_features=64, out_features=64, bias=True)
    (1): Tanh()
    (2): Linear(in_features=64, out_features=7, bias=True)
  )
  (critic): Sequential(
    (0): Linear(in_features=64, out_features=64, bias=True)
    (1): Tanh()
    (2): Linear(in_features=64, out_features=1, bias=True)
  )
)

CUDA available: True

/home/fabian_57/thesis/curriculum-test/scripts/train.py --procs 20 --strat 0.38 --sigma 0.55 --algo=ppo --env MiniGrid-DoorKey-16x16-v0 --no-instr --tb --frames=15000000 --model DoorKey-16x16-stratified-sigma0.55 --save-interval 10 --ending-acc 0.9 --ending-acc-window 200

Namespace(algo='ppo', batch_size=256, clip_eps=0.2, discount=0.99, ending_acc=0.9, ending_acc_window=200, entropy_coef=0.01, env='MiniGrid-DoorKey-16x16-v0', epochs=4, frames=15000000, frames_per_proc=None, gae_lambda=0.95, log_interval=1, lr=0.0007, max_grad_norm=0.5, model='DoorKey-16x16-stratified-sigma0.55', no_instr=True, no_mem=False, optim_alpha=0.99, optim_eps=1e-05, procs=20, recurrence=1, save_interval=10, seed=1, sigma=0.55, strat=0.38, tb=True, value_loss_coef=0.5)

Model successfully loaded

ACModel(
  (image_conv): Sequential(
    (0): Conv2d(3, 16, kernel_size=(2, 2), stride=(1, 1))
    (1): ReLU()
    (2): MaxPool2d(kernel_size=(2, 2), stride=2, padding=0, dilation=1, ceil_mode=False)
    (3): Conv2d(16, 32, kernel_size=(2, 2), stride=(1, 1))
    (4): ReLU()
    (5): Conv2d(32, 64, kernel_size=(2, 2), stride=(1, 1))
    (6): ReLU()
  )
  (memory_rnn): LSTMCell(64, 64)
  (actor): Sequential(
    (0): Linear(in_features=64, out_features=64, bias=True)
    (1): Tanh()
    (2): Linear(in_features=64, out_features=7, bias=True)
  )
  (critic): Sequential(
    (0): Linear(in_features=64, out_features=64, bias=True)
    (1): Tanh()
    (2): Linear(in_features=64, out_features=1, bias=True)
  )
)

CUDA available: True

/home/fabian_57/thesis/curriculum-test/scripts/train.py --procs 20 --strat 0.4 --sigma 0.55 --algo=ppo --env MiniGrid-DoorKey-16x16-v0 --no-instr --tb --frames=15000000 --model DoorKey-16x16-stratified-sigma0.55 --save-interval 10 --ending-acc 0.9 --ending-acc-window 200

Namespace(algo='ppo', batch_size=256, clip_eps=0.2, discount=0.99, ending_acc=0.9, ending_acc_window=200, entropy_coef=0.01, env='MiniGrid-DoorKey-16x16-v0', epochs=4, frames=15000000, frames_per_proc=None, gae_lambda=0.95, log_interval=1, lr=0.0007, max_grad_norm=0.5, model='DoorKey-16x16-stratified-sigma0.55', no_instr=True, no_mem=False, optim_alpha=0.99, optim_eps=1e-05, procs=20, recurrence=1, save_interval=10, seed=1, sigma=0.55, strat=0.4, tb=True, value_loss_coef=0.5)

Model successfully loaded

ACModel(
  (image_conv): Sequential(
    (0): Conv2d(3, 16, kernel_size=(2, 2), stride=(1, 1))
    (1): ReLU()
    (2): MaxPool2d(kernel_size=(2, 2), stride=2, padding=0, dilation=1, ceil_mode=False)
    (3): Conv2d(16, 32, kernel_size=(2, 2), stride=(1, 1))
    (4): ReLU()
    (5): Conv2d(32, 64, kernel_size=(2, 2), stride=(1, 1))
    (6): ReLU()
  )
  (memory_rnn): LSTMCell(64, 64)
  (actor): Sequential(
    (0): Linear(in_features=64, out_features=64, bias=True)
    (1): Tanh()
    (2): Linear(in_features=64, out_features=7, bias=True)
  )
  (critic): Sequential(
    (0): Linear(in_features=64, out_features=64, bias=True)
    (1): Tanh()
    (2): Linear(in_features=64, out_features=1, bias=True)
  )
)

CUDA available: True

/home/fabian_57/thesis/curriculum-test/scripts/train.py --procs 20 --strat 0.42 --sigma 0.55 --algo=ppo --env MiniGrid-DoorKey-16x16-v0 --no-instr --tb --frames=15000000 --model DoorKey-16x16-stratified-sigma0.55 --save-interval 10 --ending-acc 0.9 --ending-acc-window 200

Namespace(algo='ppo', batch_size=256, clip_eps=0.2, discount=0.99, ending_acc=0.9, ending_acc_window=200, entropy_coef=0.01, env='MiniGrid-DoorKey-16x16-v0', epochs=4, frames=15000000, frames_per_proc=None, gae_lambda=0.95, log_interval=1, lr=0.0007, max_grad_norm=0.5, model='DoorKey-16x16-stratified-sigma0.55', no_instr=True, no_mem=False, optim_alpha=0.99, optim_eps=1e-05, procs=20, recurrence=1, save_interval=10, seed=1, sigma=0.55, strat=0.42, tb=True, value_loss_coef=0.5)

Model successfully loaded

ACModel(
  (image_conv): Sequential(
    (0): Conv2d(3, 16, kernel_size=(2, 2), stride=(1, 1))
    (1): ReLU()
    (2): MaxPool2d(kernel_size=(2, 2), stride=2, padding=0, dilation=1, ceil_mode=False)
    (3): Conv2d(16, 32, kernel_size=(2, 2), stride=(1, 1))
    (4): ReLU()
    (5): Conv2d(32, 64, kernel_size=(2, 2), stride=(1, 1))
    (6): ReLU()
  )
  (memory_rnn): LSTMCell(64, 64)
  (actor): Sequential(
    (0): Linear(in_features=64, out_features=64, bias=True)
    (1): Tanh()
    (2): Linear(in_features=64, out_features=7, bias=True)
  )
  (critic): Sequential(
    (0): Linear(in_features=64, out_features=64, bias=True)
    (1): Tanh()
    (2): Linear(in_features=64, out_features=1, bias=True)
  )
)

CUDA available: True

/home/fabian_57/thesis/curriculum-test/scripts/train.py --procs 20 --strat 0.44 --sigma 0.55 --algo=ppo --env MiniGrid-DoorKey-16x16-v0 --no-instr --tb --frames=15000000 --model DoorKey-16x16-stratified-sigma0.55 --save-interval 10 --ending-acc 0.9 --ending-acc-window 200

Namespace(algo='ppo', batch_size=256, clip_eps=0.2, discount=0.99, ending_acc=0.9, ending_acc_window=200, entropy_coef=0.01, env='MiniGrid-DoorKey-16x16-v0', epochs=4, frames=15000000, frames_per_proc=None, gae_lambda=0.95, log_interval=1, lr=0.0007, max_grad_norm=0.5, model='DoorKey-16x16-stratified-sigma0.55', no_instr=True, no_mem=False, optim_alpha=0.99, optim_eps=1e-05, procs=20, recurrence=1, save_interval=10, seed=1, sigma=0.55, strat=0.44, tb=True, value_loss_coef=0.5)

Model successfully loaded

ACModel(
  (image_conv): Sequential(
    (0): Conv2d(3, 16, kernel_size=(2, 2), stride=(1, 1))
    (1): ReLU()
    (2): MaxPool2d(kernel_size=(2, 2), stride=2, padding=0, dilation=1, ceil_mode=False)
    (3): Conv2d(16, 32, kernel_size=(2, 2), stride=(1, 1))
    (4): ReLU()
    (5): Conv2d(32, 64, kernel_size=(2, 2), stride=(1, 1))
    (6): ReLU()
  )
  (memory_rnn): LSTMCell(64, 64)
  (actor): Sequential(
    (0): Linear(in_features=64, out_features=64, bias=True)
    (1): Tanh()
    (2): Linear(in_features=64, out_features=7, bias=True)
  )
  (critic): Sequential(
    (0): Linear(in_features=64, out_features=64, bias=True)
    (1): Tanh()
    (2): Linear(in_features=64, out_features=1, bias=True)
  )
)

CUDA available: True

/home/fabian_57/thesis/curriculum-test/scripts/train.py --procs 20 --strat 0.46 --sigma 0.55 --algo=ppo --env MiniGrid-DoorKey-16x16-v0 --no-instr --tb --frames=15000000 --model DoorKey-16x16-stratified-sigma0.55 --save-interval 10 --ending-acc 0.9 --ending-acc-window 200

Namespace(algo='ppo', batch_size=256, clip_eps=0.2, discount=0.99, ending_acc=0.9, ending_acc_window=200, entropy_coef=0.01, env='MiniGrid-DoorKey-16x16-v0', epochs=4, frames=15000000, frames_per_proc=None, gae_lambda=0.95, log_interval=1, lr=0.0007, max_grad_norm=0.5, model='DoorKey-16x16-stratified-sigma0.55', no_instr=True, no_mem=False, optim_alpha=0.99, optim_eps=1e-05, procs=20, recurrence=1, save_interval=10, seed=1, sigma=0.55, strat=0.46, tb=True, value_loss_coef=0.5)

Model successfully loaded

ACModel(
  (image_conv): Sequential(
    (0): Conv2d(3, 16, kernel_size=(2, 2), stride=(1, 1))
    (1): ReLU()
    (2): MaxPool2d(kernel_size=(2, 2), stride=2, padding=0, dilation=1, ceil_mode=False)
    (3): Conv2d(16, 32, kernel_size=(2, 2), stride=(1, 1))
    (4): ReLU()
    (5): Conv2d(32, 64, kernel_size=(2, 2), stride=(1, 1))
    (6): ReLU()
  )
  (memory_rnn): LSTMCell(64, 64)
  (actor): Sequential(
    (0): Linear(in_features=64, out_features=64, bias=True)
    (1): Tanh()
    (2): Linear(in_features=64, out_features=7, bias=True)
  )
  (critic): Sequential(
    (0): Linear(in_features=64, out_features=64, bias=True)
    (1): Tanh()
    (2): Linear(in_features=64, out_features=1, bias=True)
  )
)

CUDA available: True

/home/fabian_57/thesis/curriculum-test/scripts/train.py --procs 20 --strat 0.48 --sigma 0.55 --algo=ppo --env MiniGrid-DoorKey-16x16-v0 --no-instr --tb --frames=15000000 --model DoorKey-16x16-stratified-sigma0.55 --save-interval 10 --ending-acc 0.9 --ending-acc-window 200

Namespace(algo='ppo', batch_size=256, clip_eps=0.2, discount=0.99, ending_acc=0.9, ending_acc_window=200, entropy_coef=0.01, env='MiniGrid-DoorKey-16x16-v0', epochs=4, frames=15000000, frames_per_proc=None, gae_lambda=0.95, log_interval=1, lr=0.0007, max_grad_norm=0.5, model='DoorKey-16x16-stratified-sigma0.55', no_instr=True, no_mem=False, optim_alpha=0.99, optim_eps=1e-05, procs=20, recurrence=1, save_interval=10, seed=1, sigma=0.55, strat=0.48, tb=True, value_loss_coef=0.5)

Model successfully loaded

ACModel(
  (image_conv): Sequential(
    (0): Conv2d(3, 16, kernel_size=(2, 2), stride=(1, 1))
    (1): ReLU()
    (2): MaxPool2d(kernel_size=(2, 2), stride=2, padding=0, dilation=1, ceil_mode=False)
    (3): Conv2d(16, 32, kernel_size=(2, 2), stride=(1, 1))
    (4): ReLU()
    (5): Conv2d(32, 64, kernel_size=(2, 2), stride=(1, 1))
    (6): ReLU()
  )
  (memory_rnn): LSTMCell(64, 64)
  (actor): Sequential(
    (0): Linear(in_features=64, out_features=64, bias=True)
    (1): Tanh()
    (2): Linear(in_features=64, out_features=7, bias=True)
  )
  (critic): Sequential(
    (0): Linear(in_features=64, out_features=64, bias=True)
    (1): Tanh()
    (2): Linear(in_features=64, out_features=1, bias=True)
  )
)

CUDA available: True

/home/fabian_57/thesis/curriculum-test/scripts/train.py --procs 20 --strat 0.5 --sigma 0.55 --algo=ppo --env MiniGrid-DoorKey-16x16-v0 --no-instr --tb --frames=15000000 --model DoorKey-16x16-stratified-sigma0.55 --save-interval 10 --ending-acc 0.9 --ending-acc-window 200

Namespace(algo='ppo', batch_size=256, clip_eps=0.2, discount=0.99, ending_acc=0.9, ending_acc_window=200, entropy_coef=0.01, env='MiniGrid-DoorKey-16x16-v0', epochs=4, frames=15000000, frames_per_proc=None, gae_lambda=0.95, log_interval=1, lr=0.0007, max_grad_norm=0.5, model='DoorKey-16x16-stratified-sigma0.55', no_instr=True, no_mem=False, optim_alpha=0.99, optim_eps=1e-05, procs=20, recurrence=1, save_interval=10, seed=1, sigma=0.55, strat=0.5, tb=True, value_loss_coef=0.5)

Model successfully loaded

ACModel(
  (image_conv): Sequential(
    (0): Conv2d(3, 16, kernel_size=(2, 2), stride=(1, 1))
    (1): ReLU()
    (2): MaxPool2d(kernel_size=(2, 2), stride=2, padding=0, dilation=1, ceil_mode=False)
    (3): Conv2d(16, 32, kernel_size=(2, 2), stride=(1, 1))
    (4): ReLU()
    (5): Conv2d(32, 64, kernel_size=(2, 2), stride=(1, 1))
    (6): ReLU()
  )
  (memory_rnn): LSTMCell(64, 64)
  (actor): Sequential(
    (0): Linear(in_features=64, out_features=64, bias=True)
    (1): Tanh()
    (2): Linear(in_features=64, out_features=7, bias=True)
  )
  (critic): Sequential(
    (0): Linear(in_features=64, out_features=64, bias=True)
    (1): Tanh()
    (2): Linear(in_features=64, out_features=1, bias=True)
  )
)

CUDA available: True

/home/fabian_57/thesis/curriculum-test/scripts/train.py --procs 20 --strat 0.52 --sigma 0.55 --algo=ppo --env MiniGrid-DoorKey-16x16-v0 --no-instr --tb --frames=15000000 --model DoorKey-16x16-stratified-sigma0.55 --save-interval 10 --ending-acc 0.9 --ending-acc-window 200

Namespace(algo='ppo', batch_size=256, clip_eps=0.2, discount=0.99, ending_acc=0.9, ending_acc_window=200, entropy_coef=0.01, env='MiniGrid-DoorKey-16x16-v0', epochs=4, frames=15000000, frames_per_proc=None, gae_lambda=0.95, log_interval=1, lr=0.0007, max_grad_norm=0.5, model='DoorKey-16x16-stratified-sigma0.55', no_instr=True, no_mem=False, optim_alpha=0.99, optim_eps=1e-05, procs=20, recurrence=1, save_interval=10, seed=1, sigma=0.55, strat=0.52, tb=True, value_loss_coef=0.5)

Model successfully loaded

ACModel(
  (image_conv): Sequential(
    (0): Conv2d(3, 16, kernel_size=(2, 2), stride=(1, 1))
    (1): ReLU()
    (2): MaxPool2d(kernel_size=(2, 2), stride=2, padding=0, dilation=1, ceil_mode=False)
    (3): Conv2d(16, 32, kernel_size=(2, 2), stride=(1, 1))
    (4): ReLU()
    (5): Conv2d(32, 64, kernel_size=(2, 2), stride=(1, 1))
    (6): ReLU()
  )
  (memory_rnn): LSTMCell(64, 64)
  (actor): Sequential(
    (0): Linear(in_features=64, out_features=64, bias=True)
    (1): Tanh()
    (2): Linear(in_features=64, out_features=7, bias=True)
  )
  (critic): Sequential(
    (0): Linear(in_features=64, out_features=64, bias=True)
    (1): Tanh()
    (2): Linear(in_features=64, out_features=1, bias=True)
  )
)

CUDA available: True

/home/fabian_57/thesis/curriculum-test/scripts/train.py --procs 20 --strat 0.54 --sigma 0.55 --algo=ppo --env MiniGrid-DoorKey-16x16-v0 --no-instr --tb --frames=15000000 --model DoorKey-16x16-stratified-sigma0.55 --save-interval 10 --ending-acc 0.9 --ending-acc-window 200

Namespace(algo='ppo', batch_size=256, clip_eps=0.2, discount=0.99, ending_acc=0.9, ending_acc_window=200, entropy_coef=0.01, env='MiniGrid-DoorKey-16x16-v0', epochs=4, frames=15000000, frames_per_proc=None, gae_lambda=0.95, log_interval=1, lr=0.0007, max_grad_norm=0.5, model='DoorKey-16x16-stratified-sigma0.55', no_instr=True, no_mem=False, optim_alpha=0.99, optim_eps=1e-05, procs=20, recurrence=1, save_interval=10, seed=1, sigma=0.55, strat=0.54, tb=True, value_loss_coef=0.5)

Model successfully loaded

ACModel(
  (image_conv): Sequential(
    (0): Conv2d(3, 16, kernel_size=(2, 2), stride=(1, 1))
    (1): ReLU()
    (2): MaxPool2d(kernel_size=(2, 2), stride=2, padding=0, dilation=1, ceil_mode=False)
    (3): Conv2d(16, 32, kernel_size=(2, 2), stride=(1, 1))
    (4): ReLU()
    (5): Conv2d(32, 64, kernel_size=(2, 2), stride=(1, 1))
    (6): ReLU()
  )
  (memory_rnn): LSTMCell(64, 64)
  (actor): Sequential(
    (0): Linear(in_features=64, out_features=64, bias=True)
    (1): Tanh()
    (2): Linear(in_features=64, out_features=7, bias=True)
  )
  (critic): Sequential(
    (0): Linear(in_features=64, out_features=64, bias=True)
    (1): Tanh()
    (2): Linear(in_features=64, out_features=1, bias=True)
  )
)

CUDA available: True

/home/fabian_57/thesis/curriculum-test/scripts/train.py --procs 20 --strat 0.56 --sigma 0.55 --algo=ppo --env MiniGrid-DoorKey-16x16-v0 --no-instr --tb --frames=15000000 --model DoorKey-16x16-stratified-sigma0.55 --save-interval 10 --ending-acc 0.9 --ending-acc-window 200

Namespace(algo='ppo', batch_size=256, clip_eps=0.2, discount=0.99, ending_acc=0.9, ending_acc_window=200, entropy_coef=0.01, env='MiniGrid-DoorKey-16x16-v0', epochs=4, frames=15000000, frames_per_proc=None, gae_lambda=0.95, log_interval=1, lr=0.0007, max_grad_norm=0.5, model='DoorKey-16x16-stratified-sigma0.55', no_instr=True, no_mem=False, optim_alpha=0.99, optim_eps=1e-05, procs=20, recurrence=1, save_interval=10, seed=1, sigma=0.55, strat=0.56, tb=True, value_loss_coef=0.5)

Model successfully loaded

ACModel(
  (image_conv): Sequential(
    (0): Conv2d(3, 16, kernel_size=(2, 2), stride=(1, 1))
    (1): ReLU()
    (2): MaxPool2d(kernel_size=(2, 2), stride=2, padding=0, dilation=1, ceil_mode=False)
    (3): Conv2d(16, 32, kernel_size=(2, 2), stride=(1, 1))
    (4): ReLU()
    (5): Conv2d(32, 64, kernel_size=(2, 2), stride=(1, 1))
    (6): ReLU()
  )
  (memory_rnn): LSTMCell(64, 64)
  (actor): Sequential(
    (0): Linear(in_features=64, out_features=64, bias=True)
    (1): Tanh()
    (2): Linear(in_features=64, out_features=7, bias=True)
  )
  (critic): Sequential(
    (0): Linear(in_features=64, out_features=64, bias=True)
    (1): Tanh()
    (2): Linear(in_features=64, out_features=1, bias=True)
  )
)

CUDA available: True

/home/fabian_57/thesis/curriculum-test/scripts/train.py --procs 20 --strat 0.58 --sigma 0.55 --algo=ppo --env MiniGrid-DoorKey-16x16-v0 --no-instr --tb --frames=15000000 --model DoorKey-16x16-stratified-sigma0.55 --save-interval 10 --ending-acc 0.9 --ending-acc-window 200

Namespace(algo='ppo', batch_size=256, clip_eps=0.2, discount=0.99, ending_acc=0.9, ending_acc_window=200, entropy_coef=0.01, env='MiniGrid-DoorKey-16x16-v0', epochs=4, frames=15000000, frames_per_proc=None, gae_lambda=0.95, log_interval=1, lr=0.0007, max_grad_norm=0.5, model='DoorKey-16x16-stratified-sigma0.55', no_instr=True, no_mem=False, optim_alpha=0.99, optim_eps=1e-05, procs=20, recurrence=1, save_interval=10, seed=1, sigma=0.55, strat=0.58, tb=True, value_loss_coef=0.5)

Model successfully loaded

ACModel(
  (image_conv): Sequential(
    (0): Conv2d(3, 16, kernel_size=(2, 2), stride=(1, 1))
    (1): ReLU()
    (2): MaxPool2d(kernel_size=(2, 2), stride=2, padding=0, dilation=1, ceil_mode=False)
    (3): Conv2d(16, 32, kernel_size=(2, 2), stride=(1, 1))
    (4): ReLU()
    (5): Conv2d(32, 64, kernel_size=(2, 2), stride=(1, 1))
    (6): ReLU()
  )
  (memory_rnn): LSTMCell(64, 64)
  (actor): Sequential(
    (0): Linear(in_features=64, out_features=64, bias=True)
    (1): Tanh()
    (2): Linear(in_features=64, out_features=7, bias=True)
  )
  (critic): Sequential(
    (0): Linear(in_features=64, out_features=64, bias=True)
    (1): Tanh()
    (2): Linear(in_features=64, out_features=1, bias=True)
  )
)

CUDA available: True

/home/fabian_57/thesis/curriculum-test/scripts/train.py --procs 20 --strat 0.6 --sigma 0.55 --algo=ppo --env MiniGrid-DoorKey-16x16-v0 --no-instr --tb --frames=15000000 --model DoorKey-16x16-stratified-sigma0.55 --save-interval 10 --ending-acc 0.9 --ending-acc-window 200

Namespace(algo='ppo', batch_size=256, clip_eps=0.2, discount=0.99, ending_acc=0.9, ending_acc_window=200, entropy_coef=0.01, env='MiniGrid-DoorKey-16x16-v0', epochs=4, frames=15000000, frames_per_proc=None, gae_lambda=0.95, log_interval=1, lr=0.0007, max_grad_norm=0.5, model='DoorKey-16x16-stratified-sigma0.55', no_instr=True, no_mem=False, optim_alpha=0.99, optim_eps=1e-05, procs=20, recurrence=1, save_interval=10, seed=1, sigma=0.55, strat=0.6, tb=True, value_loss_coef=0.5)

Model successfully loaded

ACModel(
  (image_conv): Sequential(
    (0): Conv2d(3, 16, kernel_size=(2, 2), stride=(1, 1))
    (1): ReLU()
    (2): MaxPool2d(kernel_size=(2, 2), stride=2, padding=0, dilation=1, ceil_mode=False)
    (3): Conv2d(16, 32, kernel_size=(2, 2), stride=(1, 1))
    (4): ReLU()
    (5): Conv2d(32, 64, kernel_size=(2, 2), stride=(1, 1))
    (6): ReLU()
  )
  (memory_rnn): LSTMCell(64, 64)
  (actor): Sequential(
    (0): Linear(in_features=64, out_features=64, bias=True)
    (1): Tanh()
    (2): Linear(in_features=64, out_features=7, bias=True)
  )
  (critic): Sequential(
    (0): Linear(in_features=64, out_features=64, bias=True)
    (1): Tanh()
    (2): Linear(in_features=64, out_features=1, bias=True)
  )
)

CUDA available: True

/home/fabian_57/thesis/curriculum-test/scripts/train.py --procs 20 --strat 0.62 --sigma 0.55 --algo=ppo --env MiniGrid-DoorKey-16x16-v0 --no-instr --tb --frames=15000000 --model DoorKey-16x16-stratified-sigma0.55 --save-interval 10 --ending-acc 0.9 --ending-acc-window 200

Namespace(algo='ppo', batch_size=256, clip_eps=0.2, discount=0.99, ending_acc=0.9, ending_acc_window=200, entropy_coef=0.01, env='MiniGrid-DoorKey-16x16-v0', epochs=4, frames=15000000, frames_per_proc=None, gae_lambda=0.95, log_interval=1, lr=0.0007, max_grad_norm=0.5, model='DoorKey-16x16-stratified-sigma0.55', no_instr=True, no_mem=False, optim_alpha=0.99, optim_eps=1e-05, procs=20, recurrence=1, save_interval=10, seed=1, sigma=0.55, strat=0.62, tb=True, value_loss_coef=0.5)

Model successfully loaded

ACModel(
  (image_conv): Sequential(
    (0): Conv2d(3, 16, kernel_size=(2, 2), stride=(1, 1))
    (1): ReLU()
    (2): MaxPool2d(kernel_size=(2, 2), stride=2, padding=0, dilation=1, ceil_mode=False)
    (3): Conv2d(16, 32, kernel_size=(2, 2), stride=(1, 1))
    (4): ReLU()
    (5): Conv2d(32, 64, kernel_size=(2, 2), stride=(1, 1))
    (6): ReLU()
  )
  (memory_rnn): LSTMCell(64, 64)
  (actor): Sequential(
    (0): Linear(in_features=64, out_features=64, bias=True)
    (1): Tanh()
    (2): Linear(in_features=64, out_features=7, bias=True)
  )
  (critic): Sequential(
    (0): Linear(in_features=64, out_features=64, bias=True)
    (1): Tanh()
    (2): Linear(in_features=64, out_features=1, bias=True)
  )
)

CUDA available: True

/home/fabian_57/thesis/curriculum-test/scripts/train.py --procs 20 --strat 0.64 --sigma 0.55 --algo=ppo --env MiniGrid-DoorKey-16x16-v0 --no-instr --tb --frames=15000000 --model DoorKey-16x16-stratified-sigma0.55 --save-interval 10 --ending-acc 0.9 --ending-acc-window 200

Namespace(algo='ppo', batch_size=256, clip_eps=0.2, discount=0.99, ending_acc=0.9, ending_acc_window=200, entropy_coef=0.01, env='MiniGrid-DoorKey-16x16-v0', epochs=4, frames=15000000, frames_per_proc=None, gae_lambda=0.95, log_interval=1, lr=0.0007, max_grad_norm=0.5, model='DoorKey-16x16-stratified-sigma0.55', no_instr=True, no_mem=False, optim_alpha=0.99, optim_eps=1e-05, procs=20, recurrence=1, save_interval=10, seed=1, sigma=0.55, strat=0.64, tb=True, value_loss_coef=0.5)

Model successfully loaded

ACModel(
  (image_conv): Sequential(
    (0): Conv2d(3, 16, kernel_size=(2, 2), stride=(1, 1))
    (1): ReLU()
    (2): MaxPool2d(kernel_size=(2, 2), stride=2, padding=0, dilation=1, ceil_mode=False)
    (3): Conv2d(16, 32, kernel_size=(2, 2), stride=(1, 1))
    (4): ReLU()
    (5): Conv2d(32, 64, kernel_size=(2, 2), stride=(1, 1))
    (6): ReLU()
  )
  (memory_rnn): LSTMCell(64, 64)
  (actor): Sequential(
    (0): Linear(in_features=64, out_features=64, bias=True)
    (1): Tanh()
    (2): Linear(in_features=64, out_features=7, bias=True)
  )
  (critic): Sequential(
    (0): Linear(in_features=64, out_features=64, bias=True)
    (1): Tanh()
    (2): Linear(in_features=64, out_features=1, bias=True)
  )
)

CUDA available: True

/home/fabian_57/thesis/curriculum-test/scripts/train.py --procs 20 --strat 0.66 --sigma 0.55 --algo=ppo --env MiniGrid-DoorKey-16x16-v0 --no-instr --tb --frames=15000000 --model DoorKey-16x16-stratified-sigma0.55 --save-interval 10 --ending-acc 0.9 --ending-acc-window 200

Namespace(algo='ppo', batch_size=256, clip_eps=0.2, discount=0.99, ending_acc=0.9, ending_acc_window=200, entropy_coef=0.01, env='MiniGrid-DoorKey-16x16-v0', epochs=4, frames=15000000, frames_per_proc=None, gae_lambda=0.95, log_interval=1, lr=0.0007, max_grad_norm=0.5, model='DoorKey-16x16-stratified-sigma0.55', no_instr=True, no_mem=False, optim_alpha=0.99, optim_eps=1e-05, procs=20, recurrence=1, save_interval=10, seed=1, sigma=0.55, strat=0.66, tb=True, value_loss_coef=0.5)

Model successfully loaded

ACModel(
  (image_conv): Sequential(
    (0): Conv2d(3, 16, kernel_size=(2, 2), stride=(1, 1))
    (1): ReLU()
    (2): MaxPool2d(kernel_size=(2, 2), stride=2, padding=0, dilation=1, ceil_mode=False)
    (3): Conv2d(16, 32, kernel_size=(2, 2), stride=(1, 1))
    (4): ReLU()
    (5): Conv2d(32, 64, kernel_size=(2, 2), stride=(1, 1))
    (6): ReLU()
  )
  (memory_rnn): LSTMCell(64, 64)
  (actor): Sequential(
    (0): Linear(in_features=64, out_features=64, bias=True)
    (1): Tanh()
    (2): Linear(in_features=64, out_features=7, bias=True)
  )
  (critic): Sequential(
    (0): Linear(in_features=64, out_features=64, bias=True)
    (1): Tanh()
    (2): Linear(in_features=64, out_features=1, bias=True)
  )
)

CUDA available: True

/home/fabian_57/thesis/curriculum-test/scripts/train.py --procs 20 --strat 0.68 --sigma 0.55 --algo=ppo --env MiniGrid-DoorKey-16x16-v0 --no-instr --tb --frames=15000000 --model DoorKey-16x16-stratified-sigma0.55 --save-interval 10 --ending-acc 0.9 --ending-acc-window 200

Namespace(algo='ppo', batch_size=256, clip_eps=0.2, discount=0.99, ending_acc=0.9, ending_acc_window=200, entropy_coef=0.01, env='MiniGrid-DoorKey-16x16-v0', epochs=4, frames=15000000, frames_per_proc=None, gae_lambda=0.95, log_interval=1, lr=0.0007, max_grad_norm=0.5, model='DoorKey-16x16-stratified-sigma0.55', no_instr=True, no_mem=False, optim_alpha=0.99, optim_eps=1e-05, procs=20, recurrence=1, save_interval=10, seed=1, sigma=0.55, strat=0.68, tb=True, value_loss_coef=0.5)

Model successfully loaded

ACModel(
  (image_conv): Sequential(
    (0): Conv2d(3, 16, kernel_size=(2, 2), stride=(1, 1))
    (1): ReLU()
    (2): MaxPool2d(kernel_size=(2, 2), stride=2, padding=0, dilation=1, ceil_mode=False)
    (3): Conv2d(16, 32, kernel_size=(2, 2), stride=(1, 1))
    (4): ReLU()
    (5): Conv2d(32, 64, kernel_size=(2, 2), stride=(1, 1))
    (6): ReLU()
  )
  (memory_rnn): LSTMCell(64, 64)
  (actor): Sequential(
    (0): Linear(in_features=64, out_features=64, bias=True)
    (1): Tanh()
    (2): Linear(in_features=64, out_features=7, bias=True)
  )
  (critic): Sequential(
    (0): Linear(in_features=64, out_features=64, bias=True)
    (1): Tanh()
    (2): Linear(in_features=64, out_features=1, bias=True)
  )
)

CUDA available: True

/home/fabian_57/thesis/curriculum-test/scripts/train.py --procs 20 --strat 0.7000000000000001 --sigma 0.55 --algo=ppo --env MiniGrid-DoorKey-16x16-v0 --no-instr --tb --frames=15000000 --model DoorKey-16x16-stratified-sigma0.55 --save-interval 10 --ending-acc 0.9 --ending-acc-window 200

Namespace(algo='ppo', batch_size=256, clip_eps=0.2, discount=0.99, ending_acc=0.9, ending_acc_window=200, entropy_coef=0.01, env='MiniGrid-DoorKey-16x16-v0', epochs=4, frames=15000000, frames_per_proc=None, gae_lambda=0.95, log_interval=1, lr=0.0007, max_grad_norm=0.5, model='DoorKey-16x16-stratified-sigma0.55', no_instr=True, no_mem=False, optim_alpha=0.99, optim_eps=1e-05, procs=20, recurrence=1, save_interval=10, seed=1, sigma=0.55, strat=0.7000000000000001, tb=True, value_loss_coef=0.5)

Model successfully loaded

ACModel(
  (image_conv): Sequential(
    (0): Conv2d(3, 16, kernel_size=(2, 2), stride=(1, 1))
    (1): ReLU()
    (2): MaxPool2d(kernel_size=(2, 2), stride=2, padding=0, dilation=1, ceil_mode=False)
    (3): Conv2d(16, 32, kernel_size=(2, 2), stride=(1, 1))
    (4): ReLU()
    (5): Conv2d(32, 64, kernel_size=(2, 2), stride=(1, 1))
    (6): ReLU()
  )
  (memory_rnn): LSTMCell(64, 64)
  (actor): Sequential(
    (0): Linear(in_features=64, out_features=64, bias=True)
    (1): Tanh()
    (2): Linear(in_features=64, out_features=7, bias=True)
  )
  (critic): Sequential(
    (0): Linear(in_features=64, out_features=64, bias=True)
    (1): Tanh()
    (2): Linear(in_features=64, out_features=1, bias=True)
  )
)

CUDA available: True

/home/fabian_57/thesis/curriculum-test/scripts/train.py --procs 20 --strat 0.72 --sigma 0.55 --algo=ppo --env MiniGrid-DoorKey-16x16-v0 --no-instr --tb --frames=15000000 --model DoorKey-16x16-stratified-sigma0.55 --save-interval 10 --ending-acc 0.9 --ending-acc-window 200

Namespace(algo='ppo', batch_size=256, clip_eps=0.2, discount=0.99, ending_acc=0.9, ending_acc_window=200, entropy_coef=0.01, env='MiniGrid-DoorKey-16x16-v0', epochs=4, frames=15000000, frames_per_proc=None, gae_lambda=0.95, log_interval=1, lr=0.0007, max_grad_norm=0.5, model='DoorKey-16x16-stratified-sigma0.55', no_instr=True, no_mem=False, optim_alpha=0.99, optim_eps=1e-05, procs=20, recurrence=1, save_interval=10, seed=1, sigma=0.55, strat=0.72, tb=True, value_loss_coef=0.5)

Model successfully loaded

ACModel(
  (image_conv): Sequential(
    (0): Conv2d(3, 16, kernel_size=(2, 2), stride=(1, 1))
    (1): ReLU()
    (2): MaxPool2d(kernel_size=(2, 2), stride=2, padding=0, dilation=1, ceil_mode=False)
    (3): Conv2d(16, 32, kernel_size=(2, 2), stride=(1, 1))
    (4): ReLU()
    (5): Conv2d(32, 64, kernel_size=(2, 2), stride=(1, 1))
    (6): ReLU()
  )
  (memory_rnn): LSTMCell(64, 64)
  (actor): Sequential(
    (0): Linear(in_features=64, out_features=64, bias=True)
    (1): Tanh()
    (2): Linear(in_features=64, out_features=7, bias=True)
  )
  (critic): Sequential(
    (0): Linear(in_features=64, out_features=64, bias=True)
    (1): Tanh()
    (2): Linear(in_features=64, out_features=1, bias=True)
  )
)

CUDA available: True

/home/fabian_57/thesis/curriculum-test/scripts/train.py --procs 20 --strat 0.74 --sigma 0.55 --algo=ppo --env MiniGrid-DoorKey-16x16-v0 --no-instr --tb --frames=15000000 --model DoorKey-16x16-stratified-sigma0.55 --save-interval 10 --ending-acc 0.9 --ending-acc-window 200

Namespace(algo='ppo', batch_size=256, clip_eps=0.2, discount=0.99, ending_acc=0.9, ending_acc_window=200, entropy_coef=0.01, env='MiniGrid-DoorKey-16x16-v0', epochs=4, frames=15000000, frames_per_proc=None, gae_lambda=0.95, log_interval=1, lr=0.0007, max_grad_norm=0.5, model='DoorKey-16x16-stratified-sigma0.55', no_instr=True, no_mem=False, optim_alpha=0.99, optim_eps=1e-05, procs=20, recurrence=1, save_interval=10, seed=1, sigma=0.55, strat=0.74, tb=True, value_loss_coef=0.5)

Model successfully loaded

ACModel(
  (image_conv): Sequential(
    (0): Conv2d(3, 16, kernel_size=(2, 2), stride=(1, 1))
    (1): ReLU()
    (2): MaxPool2d(kernel_size=(2, 2), stride=2, padding=0, dilation=1, ceil_mode=False)
    (3): Conv2d(16, 32, kernel_size=(2, 2), stride=(1, 1))
    (4): ReLU()
    (5): Conv2d(32, 64, kernel_size=(2, 2), stride=(1, 1))
    (6): ReLU()
  )
  (memory_rnn): LSTMCell(64, 64)
  (actor): Sequential(
    (0): Linear(in_features=64, out_features=64, bias=True)
    (1): Tanh()
    (2): Linear(in_features=64, out_features=7, bias=True)
  )
  (critic): Sequential(
    (0): Linear(in_features=64, out_features=64, bias=True)
    (1): Tanh()
    (2): Linear(in_features=64, out_features=1, bias=True)
  )
)

CUDA available: True

/home/fabian_57/thesis/curriculum-test/scripts/train.py --procs 20 --strat 0.76 --sigma 0.55 --algo=ppo --env MiniGrid-DoorKey-16x16-v0 --no-instr --tb --frames=15000000 --model DoorKey-16x16-stratified-sigma0.55 --save-interval 10 --ending-acc 0.9 --ending-acc-window 200

Namespace(algo='ppo', batch_size=256, clip_eps=0.2, discount=0.99, ending_acc=0.9, ending_acc_window=200, entropy_coef=0.01, env='MiniGrid-DoorKey-16x16-v0', epochs=4, frames=15000000, frames_per_proc=None, gae_lambda=0.95, log_interval=1, lr=0.0007, max_grad_norm=0.5, model='DoorKey-16x16-stratified-sigma0.55', no_instr=True, no_mem=False, optim_alpha=0.99, optim_eps=1e-05, procs=20, recurrence=1, save_interval=10, seed=1, sigma=0.55, strat=0.76, tb=True, value_loss_coef=0.5)

Model successfully loaded

ACModel(
  (image_conv): Sequential(
    (0): Conv2d(3, 16, kernel_size=(2, 2), stride=(1, 1))
    (1): ReLU()
    (2): MaxPool2d(kernel_size=(2, 2), stride=2, padding=0, dilation=1, ceil_mode=False)
    (3): Conv2d(16, 32, kernel_size=(2, 2), stride=(1, 1))
    (4): ReLU()
    (5): Conv2d(32, 64, kernel_size=(2, 2), stride=(1, 1))
    (6): ReLU()
  )
  (memory_rnn): LSTMCell(64, 64)
  (actor): Sequential(
    (0): Linear(in_features=64, out_features=64, bias=True)
    (1): Tanh()
    (2): Linear(in_features=64, out_features=7, bias=True)
  )
  (critic): Sequential(
    (0): Linear(in_features=64, out_features=64, bias=True)
    (1): Tanh()
    (2): Linear(in_features=64, out_features=1, bias=True)
  )
)

CUDA available: True

/home/fabian_57/thesis/curriculum-test/scripts/train.py --procs 20 --strat 0.78 --sigma 0.55 --algo=ppo --env MiniGrid-DoorKey-16x16-v0 --no-instr --tb --frames=15000000 --model DoorKey-16x16-stratified-sigma0.55 --save-interval 10 --ending-acc 0.9 --ending-acc-window 200

Namespace(algo='ppo', batch_size=256, clip_eps=0.2, discount=0.99, ending_acc=0.9, ending_acc_window=200, entropy_coef=0.01, env='MiniGrid-DoorKey-16x16-v0', epochs=4, frames=15000000, frames_per_proc=None, gae_lambda=0.95, log_interval=1, lr=0.0007, max_grad_norm=0.5, model='DoorKey-16x16-stratified-sigma0.55', no_instr=True, no_mem=False, optim_alpha=0.99, optim_eps=1e-05, procs=20, recurrence=1, save_interval=10, seed=1, sigma=0.55, strat=0.78, tb=True, value_loss_coef=0.5)

Model successfully loaded

ACModel(
  (image_conv): Sequential(
    (0): Conv2d(3, 16, kernel_size=(2, 2), stride=(1, 1))
    (1): ReLU()
    (2): MaxPool2d(kernel_size=(2, 2), stride=2, padding=0, dilation=1, ceil_mode=False)
    (3): Conv2d(16, 32, kernel_size=(2, 2), stride=(1, 1))
    (4): ReLU()
    (5): Conv2d(32, 64, kernel_size=(2, 2), stride=(1, 1))
    (6): ReLU()
  )
  (memory_rnn): LSTMCell(64, 64)
  (actor): Sequential(
    (0): Linear(in_features=64, out_features=64, bias=True)
    (1): Tanh()
    (2): Linear(in_features=64, out_features=7, bias=True)
  )
  (critic): Sequential(
    (0): Linear(in_features=64, out_features=64, bias=True)
    (1): Tanh()
    (2): Linear(in_features=64, out_features=1, bias=True)
  )
)

CUDA available: True

/home/fabian_57/thesis/curriculum-test/scripts/train.py --procs 20 --strat 0.8 --sigma 0.55 --algo=ppo --env MiniGrid-DoorKey-16x16-v0 --no-instr --tb --frames=15000000 --model DoorKey-16x16-stratified-sigma0.55 --save-interval 10 --ending-acc 0.9 --ending-acc-window 200

Namespace(algo='ppo', batch_size=256, clip_eps=0.2, discount=0.99, ending_acc=0.9, ending_acc_window=200, entropy_coef=0.01, env='MiniGrid-DoorKey-16x16-v0', epochs=4, frames=15000000, frames_per_proc=None, gae_lambda=0.95, log_interval=1, lr=0.0007, max_grad_norm=0.5, model='DoorKey-16x16-stratified-sigma0.55', no_instr=True, no_mem=False, optim_alpha=0.99, optim_eps=1e-05, procs=20, recurrence=1, save_interval=10, seed=1, sigma=0.55, strat=0.8, tb=True, value_loss_coef=0.5)

Model successfully loaded

ACModel(
  (image_conv): Sequential(
    (0): Conv2d(3, 16, kernel_size=(2, 2), stride=(1, 1))
    (1): ReLU()
    (2): MaxPool2d(kernel_size=(2, 2), stride=2, padding=0, dilation=1, ceil_mode=False)
    (3): Conv2d(16, 32, kernel_size=(2, 2), stride=(1, 1))
    (4): ReLU()
    (5): Conv2d(32, 64, kernel_size=(2, 2), stride=(1, 1))
    (6): ReLU()
  )
  (memory_rnn): LSTMCell(64, 64)
  (actor): Sequential(
    (0): Linear(in_features=64, out_features=64, bias=True)
    (1): Tanh()
    (2): Linear(in_features=64, out_features=7, bias=True)
  )
  (critic): Sequential(
    (0): Linear(in_features=64, out_features=64, bias=True)
    (1): Tanh()
    (2): Linear(in_features=64, out_features=1, bias=True)
  )
)

CUDA available: True

/home/fabian_57/thesis/curriculum-test/scripts/train.py --procs 20 --strat 0.8200000000000001 --sigma 0.55 --algo=ppo --env MiniGrid-DoorKey-16x16-v0 --no-instr --tb --frames=15000000 --model DoorKey-16x16-stratified-sigma0.55 --save-interval 10 --ending-acc 0.9 --ending-acc-window 200

Namespace(algo='ppo', batch_size=256, cl
…
/home/fabian_57/thesis/curriculum-test/scripts/train.py --procs 20 --strat 0.9400000000000001 --sigma 0.55 --algo=ppo --env MiniGrid-DoorKey-16x16-v0 --no-instr --tb --frames=15000000 --model DoorKey-16x16-stratified-sigma0.55 --save-interval 10 --ending-acc 0.9 --ending-acc-window 200

Namespace(algo='ppo', batch_size=256, clip_eps=0.2, discount=0.99, ending_acc=0.9, ending_acc_window=200, entropy_coef=0.01, env='MiniGrid-DoorKey-16x16-v0', epochs=4, frames=15000000, frames_per_proc=None, gae_lambda=0.95, log_interval=1, lr=0.0007, max_grad_norm=0.5, model='DoorKey-16x16-stratified-sigma0.55', no_instr=True, no_mem=False, optim_alpha=0.99, optim_eps=1e-05, procs=20, recurrence=1, save_interval=10, seed=1, sigma=0.55, strat=0.9400000000000001, tb=True, value_loss_coef=0.5)

Model successfully loaded

ACModel(
  (image_conv): Sequential(
    (0): Conv2d(3, 16, kernel_size=(2, 2), stride=(1, 1))
    (1): ReLU()
    (2): MaxPool2d(kernel_size=(2, 2), stride=2, padding=0, dilation=1, ceil_mode=False)
    (3): Conv2d(16, 32, kernel_size=(2, 2), stride=(1, 1))
    (4): ReLU()
    (5): Conv2d(32, 64, kernel_size=(2, 2), stride=(1, 1))
    (6): ReLU()
  )
  (memory_rnn): LSTMCell(64, 64)
  (actor): Sequential(
    (0): Linear(in_features=64, out_features=64, bias=True)
    (1): Tanh()
    (2): Linear(in_features=64, out_features=7, bias=True)
  )
  (critic): Sequential(
    (0): Linear(in_features=64, out_features=64, bias=True)
    (1): Tanh()
    (2): Linear(in_features=64, out_features=1, bias=True)
  )
)

CUDA available: True

/home/fabian_57/thesis/curriculum-test/scripts/train.py --procs 20 --strat 0.96 --sigma 0.55 --algo=ppo --env MiniGrid-DoorKey-16x16-v0 --no-instr --tb --frames=15000000 --model DoorKey-16x16-stratified-sigma0.55 --save-interval 10 --ending-acc 0.9 --ending-acc-window 200

Namespace(algo='ppo', batch_size=256, clip_eps=0.2, discount=0.99, ending_acc=0.9, ending_acc_window=200, entropy_coef=0.01, env='MiniGrid-DoorKey-16x16-v0', epochs=4, frames=15000000, frames_per_proc=None, gae_lambda=0.95, log_interval=1, lr=0.0007, max_grad_norm=0.5, model='DoorKey-16x16-stratified-sigma0.55', no_instr=True, no_mem=False, optim_alpha=0.99, optim_eps=1e-05, procs=20, recurrence=1, save_interval=10, seed=1, sigma=0.55, strat=0.96, tb=True, value_loss_coef=0.5)

Model successfully loaded

ACModel(
  (image_conv): Sequential(
    (0): Conv2d(3, 16, kernel_size=(2, 2), stride=(1, 1))
    (1): ReLU()
    (2): MaxPool2d(kernel_size=(2, 2), stride=2, padding=0, dilation=1, ceil_mode=False)
    (3): Conv2d(16, 32, kernel_size=(2, 2), stride=(1, 1))
    (4): ReLU()
    (5): Conv2d(32, 64, kernel_size=(2, 2), stride=(1, 1))
    (6): ReLU()
  )
  (memory_rnn): LSTMCell(64, 64)
  (actor): Sequential(
    (0): Linear(in_features=64, out_features=64, bias=True)
    (1): Tanh()
    (2): Linear(in_features=64, out_features=7, bias=True)
  )
  (critic): Sequential(
    (0): Linear(in_features=64, out_features=64, bias=True)
    (1): Tanh()
    (2): Linear(in_features=64, out_features=1, bias=True)
  )
)

CUDA available: True

/home/fabian_57/thesis/curriculum-test/scripts/train.py --procs 20 --strat 0.98 --sigma 0.55 --algo=ppo --env MiniGrid-DoorKey-16x16-v0 --no-instr --tb --frames=15000000 --model DoorKey-16x16-stratified-sigma0.55 --save-interval 10 --ending-acc 0.9 --ending-acc-window 200

Namespace(algo='ppo', batch_size=256, clip_eps=0.2, discount=0.99, ending_acc=0.9, ending_acc_window=200, entropy_coef=0.01, env='MiniGrid-DoorKey-16x16-v0', epochs=4, frames=15000000, frames_per_proc=None, gae_lambda=0.95, log_interval=1, lr=0.0007, max_grad_norm=0.5, model='DoorKey-16x16-stratified-sigma0.55', no_instr=True, no_mem=False, optim_alpha=0.99, optim_eps=1e-05, procs=20, recurrence=1, save_interval=10, seed=1, sigma=0.55, strat=0.98, tb=True, value_loss_coef=0.5)

Model successfully loaded

ACModel(
  (image_conv): Sequential(
    (0): Conv2d(3, 16, kernel_size=(2, 2), stride=(1, 1))
    (1): ReLU()
    (2): MaxPool2d(kernel_size=(2, 2), stride=2, padding=0, dilation=1, ceil_mode=False)
    (3): Conv2d(16, 32, kernel_size=(2, 2), stride=(1, 1))
    (4): ReLU()
    (5): Conv2d(32, 64, kernel_size=(2, 2), stride=(1, 1))
    (6): ReLU()
  )
  (memory_rnn): LSTMCell(64, 64)
  (actor): Sequential(
    (0): Linear(in_features=64, out_features=64, bias=True)
    (1): Tanh()
    (2): Linear(in_features=64, out_features=7, bias=True)
  )
  (critic): Sequential(
    (0): Linear(in_features=64, out_features=64, bias=True)
    (1): Tanh()
    (2): Linear(in_features=64, out_features=1, bias=True)
  )
)

CUDA available: True

/home/fabian_57/thesis/curriculum-test/scripts/train.py --procs 20 --strat 1 --sigma 0.55 --algo=ppo --env MiniGrid-DoorKey-16x16-v0 --no-instr --tb --frames=15000000 --model DoorKey-16x16-stratified-sigma0.55 --save-interval 10 --ending-acc 0.9 --ending-acc-window 50

Namespace(algo='ppo', batch_size=256, clip_eps=0.2, discount=0.99, ending_acc=0.9, ending_acc_window=50, entropy_coef=0.01, env='MiniGrid-DoorKey-16x16-v0', epochs=4, frames=15000000, frames_per_proc=None, gae_lambda=0.95, log_interval=1, lr=0.0007, max_grad_norm=0.5, model='DoorKey-16x16-stratified-sigma0.55', no_instr=True, no_mem=False, optim_alpha=0.99, optim_eps=1e-05, procs=20, recurrence=1, save_interval=10, seed=1, sigma=0.55, strat=1.0, tb=True, value_loss_coef=0.5)

Model successfully loaded

ACModel(
  (image_conv): Sequential(
    (0): Conv2d(3, 16, kernel_size=(2, 2), stride=(1, 1))
    (1): ReLU()
    (2): MaxPool2d(kernel_size=(2, 2), stride=2, padding=0, dilation=1, ceil_mode=False)
    (3): Conv2d(16, 32, kernel_size=(2, 2), stride=(1, 1))
    (4): ReLU()
    (5): Conv2d(32, 64, kernel_size=(2, 2), stride=(1, 1))
    (6): ReLU()
  )
  (memory_rnn): LSTMCell(64, 64)
  (actor): Sequential(
    (0): Linear(in_features=64, out_features=64, bias=True)
    (1): Tanh()
    (2): Linear(in_features=64, out_features=7, bias=True)
  )
  (critic): Sequential(
    (0): Linear(in_features=64, out_features=64, bias=True)
    (1): Tanh()
    (2): Linear(in_features=64, out_features=1, bias=True)
  )
)

CUDA available: True

